…
conv5_3.weight        [512L, 512L, 3L, 3L]
conv5_3.bias          [512L]
fc6.weight            [4096L, 512L, 7L, 7L]
fc6.bias              [4096L]
fc7.weight            [4096L, 4096L, 1L, 1L]
fc7.bias              [4096L]
score_fr.weight       [16L, 4096L, 1L, 1L]
score_fr.bias         [16L]
score_pool3.weight    [16L, 256L, 1L, 1L]
score_pool3.bias      [16L]
score_pool4.weight    [16L, 512L, 1L, 1L]
score_pool4.bias      [16L]
upscore2.weight       [16L, 16L, 4L, 4L]
upscore8.weight       [16L, 16L, 16L, 16L]
upscore_pool4.weight  [16L, 16L, 4L, 4L]
[32m[0523 11:00:03 @pytorch_utils.py:23][0m Seg_model (
  (conv1_1): Conv2d(3, 64, kernel_size=(3, 3), stride=(1, 1), padding=(100, 100))
  (relu1_1): ReLU (inplace)
  (conv1_2): Conv2d(64, 64, kernel_size=(3, 3), stride=(1, 1), padding=(1, 1))
  (relu1_2): ReLU (inplace)
  (pool1): MaxPool2d (size=(2, 2), stride=(2, 2), dilation=(1, 1))
  (conv2_1): Conv2d(64, 128, kernel_size=(3, 3), stride=(1, 1), padding=(1, 1))
  (relu2_1): ReLU (inplace)
  (conv2_2): Conv2d(128, 128, kernel_size=(3, 3), stride=(1, 1), padding=(1, 1))
  (relu2_2): ReLU (inplace)
  (pool2): MaxPool2d (size=(2, 2), stride=(2, 2), dilation=(1, 1))
  (conv3_1): Conv2d(128, 256, kernel_size=(3, 3), stride=(1, 1), padding=(1, 1))
  (relu3_1): ReLU (inplace)
  (conv3_2): Conv2d(256, 256, kernel_size=(3, 3), stride=(1, 1), padding=(1, 1))
  (relu3_2): ReLU (inplace)
  (conv3_3): Conv2d(256, 256, kernel_size=(3, 3), stride=(1, 1), padding=(1, 1))
  (relu3_3): ReLU (inplace)
  (pool3): MaxPool2d (size=(2, 2), stride=(2, 2), dilation=(1, 1))
  (conv4_1): Conv2d(256, 512, kernel_size=(3, 3), stride=(1, 1), padding=(1, 1))
  (relu4_1): ReLU (inplace)
  (conv4_2): Conv2d(512, 512, kernel_size=(3, 3), stride=(1, 1), padding=(1, 1))
  (relu4_2): ReLU (inplace)
  (conv4_3): Conv2d(512, 512, kernel_size=(3, 3), stride=(1, 1), padding=(1, 1))
  (relu4_3): ReLU (inplace)
  (pool4): MaxPool2d (size=(2, 2), stride=(2, 2), dilation=(1, 1))
  (conv5_1): Conv2d(512, 512, kernel_size=(3, 3), stride=(1, 1), padding=(1, 1))
  (relu5_1): ReLU (inplace)
  (conv5_2): Conv2d(512, 512, kernel_size=(3, 3), stride=(1, 1), padding=(1, 1))
  (relu5_2): ReLU (inplace)
  (conv5_3): Conv2d(512, 512, kernel_size=(3, 3), stride=(1, 1), padding=(1, 1))
  (relu5_3): ReLU (inplace)
  (pool5): MaxPool2d (size=(2, 2), stride=(2, 2), dilation=(1, 1))
  (fc6): Conv2d(512, 4096, kernel_size=(7, 7), stride=(1, 1))
  (relu6): ReLU (inplace)
  (drop6): Dropout2d (p=0.5)
  (fc7): Conv2d(4096, 4096, kernel_size=(1, 1), stride=(1, 1))
  (relu7): ReLU (inplace)
  (drop7): Dropout2d (p=0.5)
  (score_fr): Conv2d(4096, 16, kernel_size=(1, 1), stride=(1, 1))
  (score_pool3): Conv2d(256, 16, kernel_size=(1, 1), stride=(1, 1))
  (score_pool4): Conv2d(512, 16, kernel_size=(1, 1), stride=(1, 1))
  (upscore2): ConvTranspose2d(16, 16, kernel_size=(4, 4), stride=(2, 2), bias=False)
  (upscore8): ConvTranspose2d(16, 16, kernel_size=(16, 16), stride=(8, 8), bias=False)
  (upscore_pool4): ConvTranspose2d(16, 16, kernel_size=(4, 4), stride=(2, 2), bias=False)
)
[32m[0523 11:00:03 @pytorch_utils.py:21][0m [36mArg Parameters: 
[0mname               shape
-----------------  --------------------
conv1.weight       [64L, 16L, 4L, 4L]
conv1.bias         [64L]
conv2.weight       [128L, 64L, 4L, 4L]
conv2.bias         [128L]
conv3.weight       [256L, 128L, 4L, 4L]
conv3.bias         [256L]
conv4.weight       [512L, 256L, 4L, 4L]
conv4.bias         [512L]
classifier.weight  [1L, 512L, 4L, 4L]
classifier.bias    [1L]
[32m[0523 11:00:03 @pytorch_utils.py:23][0m Domain_classifer_forAdapSegNet (
  (conv1): Conv2d(16, 64, kernel_size=(4, 4), stride=(2, 2), padding=(1, 1))
  (conv2): Conv2d(64, 128, kernel_size=(4, 4), stride=(2, 2), padding=(1, 1))
  (conv3): Conv2d(128, 256, kernel_size=(4, 4), stride=(2, 2), padding=(1, 1))
  (conv4): Conv2d(256, 512, kernel_size=(4, 4), stride=(2, 2), padding=(1, 1))
  (classifier): Conv2d(512, 1, kernel_size=(4, 4), stride=(2, 2), padding=(1, 1))
  (leaky_relu): LeakyReLU (0.2, inplace)
)
[32m[0523 11:00:03 @pytorch_utils.py:41][0m [36mOptimzer Parameters: 
[0m  group    id  shape                      lr    weight_decay  requires_grad    volatile
-------  ----  ----------------------  -----  --------------  ---------------  ----------
      0     0  [64L, 3L, 3L, 3L]       1e-05          0.0005  True             False
…
